Model: "sequential_1"
_________________________________________________________________
Layer (type)                 Output Shape              Param #   
=================================================================
lstm_1 (LSTM)                (None, 40, 128)           88576     
_________________________________________________________________
dropout_1 (Dropout)          (None, 40, 128)           0         
_________________________________________________________________
lstm_2 (LSTM)                (None, 128)               131584    
_________________________________________________________________
dropout_2 (Dropout)          (None, 128)               0         
_________________________________________________________________
dense_1 (Dense)              (None, 44)                5676      
=================================================================
Total params: 225,836
Trainable params: 225,836
Non-trainable params: 0
_________________________________________________________________
